…
2025-02-10 21:41:56 - Initializing CarRacing-v2 environment in render mode...
2025-02-10 21:41:57 - Environment initialized successfully.
2025-02-10 21:41:58 - ✅ Model loaded successfully.
2025-02-10 21:41:58 - MlpExtractor(
  (policy_net): Sequential()
  (value_net): Sequential()
)
2025-02-10 21:42:49 - Logger initialized successfully.
2025-02-10 21:42:49 - Initializing CarRacing-v2 environment in render mode...
2025-02-10 21:42:49 - Environment initialized successfully.
2025-02-10 21:42:51 - ✅ Model loaded successfully.
2025-02-10 21:42:51 - ActorCriticCnnPolicy(
  (features_extractor): NatureCNN(
    (cnn): Sequential(
      (0): Conv2d(3, 32, kernel_size=(8, 8), stride=(4, 4))
      (1): ReLU()
      (2): Conv2d(32, 64, kernel_size=(4, 4), stride=(2, 2))
      (3): ReLU()
      (4): Conv2d(64, 64, kernel_size=(3, 3), stride=(1, 1))
      (5): ReLU()
      (6): Flatten(start_dim=1, end_dim=-1)
    )
    (linear): Sequential(
      (0): Linear(in_features=4096, out_features=512, bias=True)
      (1): ReLU()
    )
  )
  (pi_features_extractor): NatureCNN(
    (cnn): Sequential(
      (0): Conv2d(3, 32, kernel_size=(8, 8), stride=(4, 4))
      (1): ReLU()
      (2): Conv2d(32, 64, kernel_size=(4, 4), stride=(2, 2))
      (3): ReLU()
      (4): Conv2d(64, 64, kernel_size=(3, 3), stride=(1, 1))
      (5): ReLU()
      (6): Flatten(start_dim=1, end_dim=-1)
    )
    (linear): Sequential(
      (0): Linear(in_features=4096, out_features=512, bias=True)
      (1): ReLU()
    )
  )
  (vf_features_extractor): NatureCNN(
    (cnn): Sequential(
      (0): Conv2d(3, 32, kernel_size=(8, 8), stride=(4, 4))
      (1): ReLU()
      (2): Conv2d(32, 64, kernel_size=(4, 4), stride=(2, 2))
      (3): ReLU()
      (4): Conv2d(64, 64, kernel_size=(3, 3), stride=(1, 1))
      (5): ReLU()
      (6): Flatten(start_dim=1, end_dim=-1)
    )
    (linear): Sequential(
      (0): Linear(in_features=4096, out_features=512, bias=True)
      (1): ReLU()
    )
  )
  (mlp_extractor): MlpExtractor(
    (policy_net): Sequential()
    (value_net): Sequential()
  )
  (action_net): Linear(in_features=512, out_features=3, bias=True)
  (value_net): Linear(in_features=512, out_features=1, bias=True)
)
